…
Self-Attention Sparsity Ratio=60.96%, Self-Attention Complexity Ratio=19.52%
Mask:
 tensor([[[[False,  True,  True,  ...,  True,  True,  True],
          [ True, False,  True,  ...,  True,  True,  True],
          [ True,  True, False,  ...,  True,  True,  True],
          ...,
          [ True,  True,  True,  ..., False,  True,  True],
          [ True,  True,  True,  ...,  True, False,  True],
          [ True,  True,  True,  ...,  True,  True, False]]]])
ECC_Transformer(
  (decoder): Encoder(
    (layers): ModuleList(
      (0): EncoderLayer(
        (self_attn): MultiHeadedAttention(
          (linears): ModuleList(
            (0): Linear(in_features=32, out_features=32, bias=True)
            (1): Linear(in_features=32, out_features=32, bias=True)
            (2): Linear(in_features=32, out_features=32, bias=True)
            (3): Linear(in_features=32, out_features=32, bias=True)
          )
          (dropout): Dropout(p=0.1, inplace=False)
        )
        (feed_forward): PositionwiseFeedForward(
          (w_1): Linear(in_features=32, out_features=128, bias=True)
          (w_2): Linear(in_features=128, out_features=32, bias=True)
          (dropout): Dropout(p=0, inplace=False)
        )
        (sublayer): ModuleList(
          (0): SublayerConnection(
            (norm): LayerNorm((32,), eps=1e-05, elementwise_affine=True)
            (dropout): Dropout(p=0, inplace=False)
          )
          (1): SublayerConnection(
            (norm): LayerNorm((32,), eps=1e-05, elementwise_affine=True)
            (dropout): Dropout(p=0, inplace=False)
          )
        )
      )
      (1): EncoderLayer(
        (self_attn): MultiHeadedAttention(
          (linears): ModuleList(
            (0): Linear(in_features=32, out_features=32, bias=True)
            (1): Linear(in_features=32, out_features=32, bias=True)
            (2): Linear(in_features=32, out_features=32, bias=True)
            (3): Linear(in_features=32, out_features=32, bias=True)
          )
          (dropout): Dropout(p=0.1, inplace=False)
        )
        (feed_forward): PositionwiseFeedForward(
          (w_1): Linear(in_features=32, out_features=128, bias=True)
          (w_2): Linear(in_features=128, out_features=32, bias=True)
          (dropout): Dropout(p=0, inplace=False)
        )
        (sublayer): ModuleList(
          (0): SublayerConnection(
            (norm): LayerNorm((32,), eps=1e-05, elementwise_affine=True)
            (dropout): Dropout(p=0, inplace=False)
          )
          (1): SublayerConnection(
            (norm): LayerNorm((32,), eps=1e-05, elementwise_affine=True)
            (dropout): Dropout(p=0, inplace=False)
          )
        )
      )
      (2): EncoderLayer(
        (self_attn): MultiHeadedAttention(
          (linears): ModuleList(
            (0): Linear(in_features=32, out_features=32, bias=True)
            (1): Linear(in_features=32, out_features=32, bias=True)
            (2): Linear(in_features=32, out_features=32, bias=True)
            (3): Linear(in_features=32, out_features=32, bias=True)
          )
          (dropout): Dropout(p=0.1, inplace=False)
        )
        (feed_forward): PositionwiseFeedForward(
          (w_1): Linear(in_features=32, out_features=128, bias=True)
          (w_2): Linear(in_features=128, out_features=32, bias=True)
          (dropout): Dropout(p=0, inplace=False)
        )
        (sublayer): ModuleList(
          (0): SublayerConnection(
            (norm): LayerNorm((32,), eps=1e-05, elementwise_affine=True)
            (dropout): Dropout(p=0, inplace=False)
          )
          (1): SublayerConnection(
            (norm): LayerNorm((32,), eps=1e-05, elementwise_affine=True)
            (dropout): Dropout(p=0, inplace=False)
          )
        )
      )
      (3): EncoderLayer(
        (self_attn): MultiHeadedAttention(
          (linears): ModuleList(
            (0): Linear(in_features=32, out_features=32, bias=True)
            (1): Linear(in_features=32, out_features=32, bias=True)
            (2): Linear(in_features=32, out_features=32, bias=True)
            (3): Linear(in_features=32, out_features=32, bias=True)
          )
          (dropout): Dropout(p=0.1, inplace=False)
        )
        (feed_forward): PositionwiseFeedForward(
          (w_1): Linear(in_features=32, out_features=128, bias=True)
          (w_2): Linear(in_features=128, out_features=32, bias=True)
          (dropout): Dropout(p=0, inplace=False)
        )
        (sublayer): ModuleList(
          (0): SublayerConnection(
            (norm): LayerNorm((32,), eps=1e-05, elementwise_affine=True)
            (dropout): Dropout(p=0, inplace=False)
          )
          (1): SublayerConnection(
            (norm): LayerNorm((32,), eps=1e-05, elementwise_affine=True)
            (dropout): Dropout(p=0, inplace=False)
          )
        )
      )
      (4): EncoderLayer(
        (self_attn): MultiHeadedAttention(
          (linears): ModuleList(
            (0): Linear(in_features=32, out_features=32, bias=True)
            (1): Linear(in_features=32, out_features=32, bias=True)
            (2): Linear(in_features=32, out_features=32, bias=True)
            (3): Linear(in_features=32, out_features=32, bias=True)
          )
          (dropout): Dropout(p=0.1, inplace=False)
        )
        (feed_forward): PositionwiseFeedForward(
          (w_1): Linear(in_features=32, out_features=128, bias=True)
          (w_2): Linear(in_features=128, out_features=32, bias=True)
          (dropout): Dropout(p=0, inplace=False)
        )
        (sublayer): ModuleList(
          (0): SublayerConnection(
            (norm): LayerNorm((32,), eps=1e-05, elementwise_affine=True)
            (dropout): Dropout(p=0, inplace=False)
          )
          (1): SublayerConnection(
            (norm): LayerNorm((32,), eps=1e-05, elementwise_affine=True)
            (dropout): Dropout(p=0, inplace=False)
          )
        )
      )
      (5): EncoderLayer(
        (self_attn): MultiHeadedAttention(
          (linears): ModuleList(
            (0): Linear(in_features=32, out_features=32, bias=True)
            (1): Linear(in_features=32, out_features=32, bias=True)
            (2): Linear(in_features=32, out_features=32, bias=True)
            (3): Linear(in_features=32, out_features=32, bias=True)
          )
          (dropout): Dropout(p=0.1, inplace=False)
        )
        (feed_forward): PositionwiseFeedForward(
          (w_1): Linear(in_features=32, out_features=128, bias=True)
          (w_2): Linear(in_features=128, out_features=32, bias=True)
          (dropout): Dropout(p=0, inplace=False)
        )
        (sublayer): ModuleList(
          (0): SublayerConnection(
            (norm): LayerNorm((32,), eps=1e-05, elementwise_affine=True)
            (dropout): Dropout(p=0, inplace=False)
          )
          (1): SublayerConnection(
            (norm): LayerNorm((32,), eps=1e-05, elementwise_affine=True)
            (dropout): Dropout(p=0, inplace=False)
          )
        )
      )
    )
    (norm): LayerNorm((32,), eps=1e-05, elementwise_affine=True)
    (norm2): LayerNorm((32,), eps=1e-05, elementwise_affine=True)
  )
  (oned_final_embed): Sequential(
    (0): Linear(in_features=32, out_features=1, bias=True)
  )
  (out_fc): Linear(in_features=46, out_features=31, bias=True)
)
# of Parameters: 79314
Training epoch 1, Batch 500/1000: LR=1.00e-04, Loss=3.01e-01 BER=1.13e-01 FER=7.78e-01
Training epoch 1, Batch 1000/1000: LR=1.00e-04, Loss=2.37e-01 BER=8.14e-02 FER=7.33e-01
Epoch 1 Train Time 41.63707661628723s


Test Loss 4: 1.74e-01 5: 1.15e-01 6: 7.07e-02
Test FER 4: 8.18e-01 5: 6.67e-01 6: 4.88e-01
Test BER 4: 5.36e-02 5: 3.50e-02 6: 2.14e-02
…
