…
Self-Attention Sparsity Ratio=60.96%, Self-Attention Complexity Ratio=19.52%
Mask:
 tensor([[[[False,  True,  True,  ...,  True,  True,  True],
          [ True, False,  True,  ...,  True,  True,  True],
          [ True,  True, False,  ...,  True,  True,  True],
          ...,
          [ True,  True,  True,  ..., False,  True,  True],
          [ True,  True,  True,  ...,  True, False,  True],
          [ True,  True,  True,  ...,  True,  True, False]]]])
ECC_Transformer(
  (decoder): Encoder(
    (layers): ModuleList(
      (0): EncoderLayer(
        (self_attn): MultiHeadedAttention(
          (linears): ModuleList(
            (0): Linear(in_features=32, out_features=32, bias=True)
            (1): Linear(in_features=32, out_features=32, bias=True)
            (2): Linear(in_features=32, out_features=32, bias=True)
            (3): Linear(in_features=32, out_features=32, bias=True)
          )
          (dropout): Dropout(p=0.1, inplace=False)
        )
        (feed_forward): PositionwiseFeedForward(
          (w_1): Linear(in_features=32, out_features=128, bias=True)
          (w_2): Linear(in_features=128, out_features=32, bias=True)
          (dropout): Dropout(p=0, inplace=False)
        )
        (sublayer): ModuleList(
          (0): SublayerConnection(
            (norm): LayerNorm((32,), eps=1e-05, elementwise_affine=True)
            (dropout): Dropout(p=0, inplace=False)
          )
          (1): SublayerConnection(
            (norm): LayerNorm((32,), eps=1e-05, elementwise_affine=True)
            (dropout): Dropout(p=0, inplace=False)
          )
        )
      )
      (1): EncoderLayer(
        (self_attn): MultiHeadedAttention(
          (linears): ModuleList(
            (0): Linear(in_features=32, out_features=32, bias=True)
            (1): Linear(in_features=32, out_features=32, bias=True)
            (2): Linear(in_features=32, out_features=32, bias=True)
            (3): Linear(in_features=32, out_features=32, bias=True)
          )
          (dropout): Dropout(p=0.1, inplace=False)
        )
        (feed_forward): PositionwiseFeedForward(
          (w_1): Linear(in_features=32, out_features=128, bias=True)
          (w_2): Linear(in_features=128, out_features=32, bias=True)
          (dropout): Dropout(p=0, inplace=False)
        )
        (sublayer): ModuleList(
          (0): SublayerConnection(
            (norm): LayerNorm((32,), eps=1e-05, elementwise_affine=True)
            (dropout): Dropout(p=0, inplace=False)
          )
          (1): SublayerConnection(
            (norm): LayerNorm((32,), eps=1e-05, elementwise_affine=True)
            (dropout): Dropout(p=0, inplace=False)
          )
        )
      )
      (2): EncoderLayer(
        (self_attn): MultiHeadedAttention(
          (linears): ModuleList(
            (0): Linear(in_features=32, out_features=32, bias=True)
            (1): Linear(in_features=32, out_features=32, bias=True)
            (2): Linear(in_features=32, out_features=32, bias=True)
            (3): Linear(in_features=32, out_features=32, bias=True)
          )
          (dropout): Dropout(p=0.1, inplace=False)
        )
        (feed_forward): PositionwiseFeedForward(
          (w_1): Linear(in_features=32, out_features=128, bias=True)
          (w_2): Linear(in_features=128, out_features=32, bias=True)
          (dropout): Dropout(p=0, inplace=False)
        )
        (sublayer): ModuleList(
          (0): SublayerConnection(
            (norm): LayerNorm((32,), eps=1e-05, elementwise_affine=True)
            (dropout): Dropout(p=0, inplace=False)
          )
          (1): SublayerConnection(
            (norm): LayerNorm((32,), eps=1e-05, elementwise_affine=True)
            (dropout): Dropout(p=0, inplace=False)
          )
        )
      )
      (3): EncoderLayer(
        (self_attn): MultiHeadedAttention(
          (linears): ModuleList(
            (0): Linear(in_features=32, out_features=32, bias=True)
            (1): Linear(in_features=32, out_features=32, bias=True)
            (2): Linear(in_features=32, out_features=32, bias=True)
            (3): Linear(in_features=32, out_features=32, bias=True)
          )
          (dropout): Dropout(p=0.1, inplace=False)
        )
        (feed_forward): PositionwiseFeedForward(
          (w_1): Linear(in_features=32, out_features=128, bias=True)
          (w_2): Linear(in_features=128, out_features=32, bias=True)
          (dropout): Dropout(p=0, inplace=False)
        )
        (sublayer): ModuleList(
          (0): SublayerConnection(
            (norm): LayerNorm((32,), eps=1e-05, elementwise_affine=True)
            (dropout): Dropout(p=0, inplace=False)
          )
          (1): SublayerConnection(
            (norm): LayerNorm((32,), eps=1e-05, elementwise_affine=True)
            (dropout): Dropout(p=0, inplace=False)
          )
        )
      )
      (4): EncoderLayer(
        (self_attn): MultiHeadedAttention(
          (linears): ModuleList(
            (0): Linear(in_features=32, out_features=32, bias=True)
            (1): Linear(in_features=32, out_features=32, bias=True)
            (2): Linear(in_features=32, out_features=32, bias=True)
            (3): Linear(in_features=32, out_features=32, bias=True)
          )
          (dropout): Dropout(p=0.1, inplace=False)
        )
        (feed_forward): PositionwiseFeedForward(
          (w_1): Linear(in_features=32, out_features=128, bias=True)
          (w_2): Linear(in_features=128, out_features=32, bias=True)
          (dropout): Dropout(p=0, inplace=False)
        )
        (sublayer): ModuleList(
          (0): SublayerConnection(
            (norm): LayerNorm((32,), eps=1e-05, elementwise_affine=True)
            (dropout): Dropout(p=0, inplace=False)
          )
          (1): SublayerConnection(
            (norm): LayerNorm((32,), eps=1e-05, elementwise_affine=True)
            (dropout): Dropout(p=0, inplace=False)
          )
        )
      )
      (5): EncoderLayer(
        (self_attn): MultiHeadedAttention(
          (linears): ModuleList(
            (0): Linear(in_features=32, out_features=32, bias=True)
            (1): Linear(in_features=32, out_features=32, bias=True)
            (2): Linear(in_features=32, out_features=32, bias=True)
            (3): Linear(in_features=32, out_features=32, bias=True)
          )
          (dropout): Dropout(p=0.1, inplace=False)
        )
        (feed_forward): PositionwiseFeedForward(
          (w_1): Linear(in_features=32, out_features=128, bias=True)
          (w_2): Linear(in_features=128, out_features=32, bias=True)
          (dropout): Dropout(p=0, inplace=False)
        )
        (sublayer): ModuleList(
          (0): SublayerConnection(
            (norm): LayerNorm((32,), eps=1e-05, elementwise_affine=True)
            (dropout): Dropout(p=0, inplace=False)
          )
          (1): SublayerConnection(
            (norm): LayerNorm((32,), eps=1e-05, elementwise_affine=True)
            (dropout): Dropout(p=0, inplace=False)
          )
        )
      )
    )
    (norm): LayerNorm((32,), eps=1e-05, elementwise_affine=True)
    (norm2): LayerNorm((32,), eps=1e-05, elementwise_affine=True)
  )
  (oned_final_embed): Sequential(
    (0): Linear(in_features=32, out_features=1, bias=True)
  )
  (out_fc): Linear(in_features=46, out_features=31, bias=True)
)
# of Parameters: 79314
Epoch 1/1000
Training epoch 1, Batch 500/1000: LR=1.00e-04, Loss=3.57e-01 BER=1.33e-01 FER=8.90e-01
Training epoch 1, Batch 1000/1000: LR=1.00e-04, Loss=3.01e-01 BER=1.01e-01 FER=8.67e-01
Epoch 1 Train Time 45.23304104804993s


Test Loss 4: 2.55e-01 5: 2.09e-01 6: 1.68e-01
Test FER 4: 9.12e-01 5: 8.40e-01 6: 7.47e-01
Test BER 4: 7.51e-02 5: 5.77e-02 6: 4.32e-02
…
